pnet.onnx (onnx, 54790 bytes, 8 tensors)

conv1.bias f4 [16]
0.10781862 0.06319425 0.12681052 -0.18790042 0.38195476 0.11648983 -0.15223219 0.25417936
0.20878625 0.3158226 0.13609001 0.03633497 -0.18388371 -0.027999911 0.10330214 -0.032923844
00000000: 02d0 dc3d fd6b 813d 9eda 013e f868 40be
00000010: 938f c33e 3892 ee3d c1e2 1bbe cc23 823e
00000020: 10cc 553e 80b3 a13e 2e5b 0b3e fad3 143d
00000030: 034c 3cbe 1260 e5bc 1390 d33d 27db 06bd

conv1.weight f4 [16, 3, 3, 3]
0.025245639 0.04293968 -0.0010640157 -0.011702198 0.007439253 0.012199787 -0.050817415 -0.022516575
-0.012650413 -0.22306155 -0.19114584 -0.16861741 -0.105299346 -0.066170834 -0.04790732 0.031738717
0.07084418 0.09785769 0.16026995 0.136542 0.15535572 0.1015046 0.042657163 0.03531339
0.031572223 -0.025689395 -0.06282632 0.06939662 0.11257232 0.033267573 -0.09148439 -0.14693399
-0.09043805 0.029809315 0.030117989 0.057040185 0.03074145 0.060807973 0.02488535 -0.07948747
-0.16439378 -0.083219305 0.07296007 0.05845186 0.06839406 0.18785493 0.28231514 0.21637085
-0.12778395 -0.17214593 -0.13243045 -0.08945114 -0.058510665 -0.09318621 0.011701186 0.002936325
-0.0805007 0.09685949 0.03807232 -0.050326977 -0.0021779623 -0.07968964 -0.13404047 0.07477802
0.04746661 -0.06867112 0.2090315 0.15314093 -0.010181932 0.19939145 0.14371185 0.021975862
-0.19905178 -0.095782876 0.04075355 -0.25075325 -0.1508606 0.018281281 -0.055777427 -0.041365072
0.1205571 -0.04158654 -0.049244463 -0.038037267 0.052061103 0.010993239 -0.0099787265 0.123112276
0.045163043 -0.062188122 0.07921224 -0.15806288 -0.3217103 0.20413944 -0.008189584 -0.20163529
0.276684 0.1356043 -0.06971342 -0.026069464 0.17317595 0.36036307 -0.24399766 0.0067204633
0.19421555 -0.4406141 -0.1375979 0.117525056 0.0035125262 0.022753246 0.05053927 -0.020122396
-0.025945542 -0.02884956 -0.01140313 -0.05042038 -0.069139145 -0.0109951105 0.00089284405 -0.011402634
-0.00020135136 0.021081425 0.015907524 0.00756222 0.000674028 -0.007375559 -0.046694815 -0.035570707
-0.05358472 -0.028795313 -0.033767685 -0.026032839 0.020058822 -0.0068323812 0.056797028 -0.020908687
-0.022564406 -0.006659602 0.060990818 0.13212305 0.09393138 -0.04675828 -0.10328314 -0.08583096
0.01184637 -0.020635419 0.019949181 0.08938913 0.14172298 0.11178589 -0.05943602 -0.15312088
-0.12830757 -0.10938306 -0.10180306 -0.074179806 0.20053886 0.2818023 0.21852583 -0.11503395
-0.1637402 -0.1452137 0.057864167 -0.106900506 0.015486624 0.05419162 -0.11312473 0.041832123
0.02870558 -0.016450133 0.03680244 0.15149154 -0.19838667 0.06393124 0.14427823 -0.21242401
0.10166953 0.072956614 -0.1385441 0.026501443 0.13183042 -0.28253856 0.14026378 0.14214653
-0.29031852 0.17615597 0.06945632 -0.1728495 0.08093535 0.0014748124 -0.006940214 0.12668093
-0.1500392 -0.22486103 0.007828138 -0.057810422 -0.07700765 0.04126515 0.03766597 0.11239489
0.039722294 0.027320683 0.02646431 0.07271955 0.05272663 0.052219212 0.046964273 -0.07109006
0.0009319058 -0.2041137 0.18937525 0.11483445 0.0059410506 -0.01544176 -0.03679273 -0.09418613
-0.0045718574 0.013145869 -0.0417018 0.10008078 0.08707054 0.026990518 0.08564465 0.11424599
0.071136184 0.05358331 0.11033276 0.0788636 0.022963528 0.016585108 0.0008169358 -0.050747912
-0.04586946 -0.05067672 -0.05388894 -0.047187284 0.03238522 -0.11264461 -0.1709699 -0.025346685
-0.058500066 -0.112079 -0.017900035 0.010399904 -0.009776858 0.009691492 0.021455038 0.00031481465
-0.00042664338 0.025990052 0.0028717266 0.00464623 0.03070117 0.0018947754 0.051515505 0.0072890343
00000000: f1cf ce3c 85e1 2f3d 7176 8bba 93ba 3fbc
00000010: fac4 f33b 9ee1 473c ec25 50bd ae74 b8bc
00000020: ae43 4fbc 3f6a 64be bcbb 43be 0baa 2cbe
00000030: 2fa7 d7bd 9384 87bd 773a 44bd 7500 023d
00000040: c116 913d 9d69 c83d ce1d 243e abd1 0b3e
00000050: 9215 1f3e a5e1 cf3d 47b9 2e3d c6a4 103d
00000060: e051 013d 9172 d2bc 16ab 80bd d11f 8e3d
00000070: 518c e63d 9443 083d 2b5c bbbd dd75 16be
00000080: 9637 b9bd aa32 f43c 00ba f63c f8a2 693d
00000090: 7ed5 fb3c c811 793d 5ddc cb3c 54ca a2bd
000000a0: d856 28be e26e aabd 176c 953d 386b 6f3d
000000b0: 2f12 8c3d 0b5d 403e 9c8b 903e 5290 5d3e
000000c0: ccd9 02be 0647 30be d99b 07be 2932 b7bd
000000d0: e1a8 6fbd 69d8 bebd 55b6 3f3c 5c6f 403b
000000e0: 8ddd a4bd 455e c63d b9f1 1b3d a923 4ebd
000000f0: 25bc 0ebb 5234 a3bd e841 09be 3825 993d
00000100: 596c 423d 72a3 8cbd 5b0c 563e fad0 1c3e
00000110: 1ed2 26bc 462d 4c3e 3329 133e b906 b43c
00000120: 3bd4 4bbe d029 c4bd 32ed 263d bb62 80be
00000130: 337b 1abe a0c2 953c df76 64bd 6c6e 29bd
00000140: a4e6 f63d a656 2abd 90b4 49bd f7cc 1bbd
00000150: 063e 553d fc1c 343c d07d 23bc 4a22 fc3d
00000160: e2fc 383d f9b8 7ebd 073a a23d 3cdb 21be
00000170: 36b7 a4be ee09 513e 9b2d 06bc 7b79 4ebe
00000180: 86a9 8d3e dbdb 0a3e e9c5 8ebd a18f d5bc
00000190: 0955 313e 8281 b83e 86da 79be 5537 dc3b
000001a0: 71e0 463e 2c98 e1be 77e6 0cbe fab0 f03d
000001b0: 6932 663b 0465 ba3c 4402 4f3d b9d7 a4bc
000001c0: bf8b d4bc ea55 ecbc 32d4 3abc 9a85 4ebd
000001d0: d398 8dbd d624 34bc c00d 6a3a 1dd2 3abc
000001e0: d821 53b9 f4b2 ac3c 7f50 823c 80cc f73b
000001f0: 41b1 303a acae f1bb 1043 3fbd 97b2 11bd
00000200: a77b 5bbd 26e4 ebbc fc4f 0abd d242 d5bc
00000210: 6652 a43c 2be2 dfbb 00a4 683d b248 abbc
00000220: fdd8 b8bc ca38 dabb 82d1 793d 444b 073e
00000230: 185f c03d 9c85 3fbd 1c86 d3bd 24c8 afbd
00000240: 4717 423c 9c0b a9bc 776c a33c a611 b73d
00000250: d41f 113e 00f0 e43d 2f73 73bd b8cb 1cbe
00000260: 0f63 03be 3a04 e0bd 1f7e d0bd 95eb 97bd
00000270: 0f5a 4d3e 6448 903e 3cc5 5f3e eb96 ebbd
00000280: 83ab 27be e6b2 14be fa02 6d3d a7ee dabd
00000290: 9cbb 7d3c 08f8 5d3d f0ad e7bd 2958 2b3d
000002a0: f727 eb3c 6ec2 86bc 28be 163d 9920 1b3e
000002b0: e025 4bbe 62ee 823d acbd 133e ae85 59be
000002c0: 1d38 d03d 476a 953d 81de 0dbe 8e19 d93c
000002d0: 8efe 063e e5a8 90be 4fa1 0f3e dc8e 113e
000002e0: a1a4 94be 3b62 343e 1d3f 8e3d 76ff 30be
000002f0: 6fc1 a53d 7e4e c13a bc6a e3bb a5b8 013e
00000300: e0a3 19be f841 66be 9741 003c 9fca 6cbd
00000310: 30b6 9dbd a505 293d a247 1a3d 4b2f e63d
00000320: d8b3 223d a0cf df3c aecb d83c fded 943d
00000330: e1f7 573d d0e3 553d 9c5d 403d aa97 91bd
00000340: 244b 743a 2f03 51be 96eb 413e 532e eb3d
00000350: 25ad c23b 70ff 7cbc f9b3 16bd a8e4 c0bd
00000360: 85cf 95bb c561 573c 82cf 2abd 27f7 cc3d
00000370: 0a52 b23d 381b dd3c 7666 af3d cdf9 e93d
00000380: d9af 913d 2c7a 5b3d 24f6 e13d 3d83 a13d
00000390: 021e bc3c 7edd 873c a227 563a 0bdd 4fbd
000003a0: 9de1 3bbd 6492 4fbd a6ba 5cbd 7447 41bd
000003b0: 5da6 043d 38b2 e6bd bc12 2fbe daa3 cfbc
000003c0: c49d 6fbd ad89 e5bd 18a3 92bc 5c64 2a3c
000003d0: 1d2f 20bc 10c9 1e3c 7ac2 af3c b50d a539
000003e0: 1baf dfb9 17e9 d43c 9433 3c3b 673f 983b
000003f0: 0581 fb3c 1d5a f83a ec01 533d dad8 ee3b

conv2.bias f4 [32]
0.07516447 0.41162384 0.37232858 0.21049978 0.33700475 0.3335128 0.29812127 -0.06595906
0.12334304 0.1281036 0.09421211 0.23956496 0.40527877 0.22425686 0.11136954 0.15154445
0.11475048 0.24700445 0.113363765 0.41473955 0.09417515 0.28398678 0.34230253 0.021915453
0.17749985 0.25638527 0.30296692 0.15373944 0.15849335 0.1647095 0.13287592 0.14181177
00000000: d4ef 993d 5cc0 d23e daa1 be3e 418d 573e
00000010: e38b ac3e 31c2 aa3e 5aa3 983e 8b15 87bd
00000020: 479b fc3d 972d 033e 47f2 c03d 8450 753e
00000030: b380 cf3e 97a3 653e b715 e43d 782e 1b3e
00000040: 4d02 eb3d bcee 7c3e 432b e83d be58 d43e
00000050: e7de c03d b766 913e 4742 af3e 0988 b33c
00000060: 85c2 353e ee44 833e 7b1e 9b3e df6d 1d3e
00000070: 154c 223e 9ba9 283e a010 083e 1b37 113e

conv2.weight f4 [32, 16, 5, 5]
-0.049253784 -0.061880533 -0.037242398 -0.03930578 -0.05154576 -0.053269282 -0.06377357 -0.041168764
-0.0030582927 -0.053832926 -0.026169606 -0.0114224665 0.017447513 -0.026907979 -0.11255313 0.014178149
0.11598539 0.13848749 0.041437946 -0.044545863 0.0043679564 0.06082568 0.15619554 0.15427335
0.026220605 0.0025111183 -0.0047099725 -0.0011992732 -0.007225543 -0.014206542 0.0045653605 -0.0169132
-0.053768978 -0.0845356 -0.042077288 0.0023818424 -0.003334842 -0.044612646 -0.056060687 -0.019918295
-0.02052501 0.0016653194 0.008633381 0.00839349 -0.006013575 0.011104959 -0.0052988986 0.02776487
0.02041828 -0.0100741 0.028873142 0.031249292 -0.0036464208 -0.007167296 0.004841043 0.004189118
0.020329287 0.014513806 0.016388433 0.031758286 -0.0003470082 -0.0015170823 0.0130764805 0.006681145
0.030643636 0.006538369 -0.02435404 -0.037829693 -0.044194836 -0.0005024039 0.017405469 -0.015277926
-0.042530585 -0.04007381 -0.021212662 -0.008320674 -0.0114756925 -0.0019498059 0.0013154587 0.009582692
-0.04929714 -0.039163277 -0.02726367 -0.017978722 -0.017319286 -0.019385999 0.0054470845 -0.00055944617
0.00055009674 0.010609788 0.006166276 0.053959537 0.060353342 0.032795295 0.025118535 0.021114983
0.06045865 0.058250155 0.053602934 0.0172373 -0.011561645 -0.026272114 -0.017174395 -0.032246448
-0.023390543 -0.0075202477 -0.0153454915 0.0082910005 -0.006147899 -0.037720595 4.410601e-05 0.04421333
0.029856283 -0.0042517832 -0.049111404 -0.005349536 0.016691988 0.037406404 0.027066905 -0.0314636
-0.006627589 0.029019041 0.05013295 0.03870387 0.011805646 -0.008598098 -0.01987843 -0.027281424
-0.040418837 -0.02146777 0.0067251194 -0.012576041 -0.036462016 -0.06335523 -0.032640122 -0.0041841688
-0.002648777 -0.00998803 -0.012621923 -0.008918429 -0.001464212 0.009912284 0.02333402 0.013532809
0.006868488 -0.012960023 0.0075265025 0.0316922 0.018921394 -0.017907511 -0.012496547 0.0041720406
-0.0018733495 -0.0056647337 0.0011526094 -0.0109944055 -0.00031324162 -0.01801411 -0.021555688 -0.016090741
-0.012900255 -0.0009112179 -0.020342963 -0.00719189 -0.013293906 -0.005310805 0.0062508583 -0.004455734
0.021530375 -0.0025112636 -0.0035795746 -0.00090250483 0.016831936 0.0094845025 -0.017570412 0.010736642
0.022466479 -0.011525452 -0.04337591 -0.029269299 -0.0155744385 -0.009903365 -0.007875367 -0.032324046
-0.0031148712 -0.013851985 -0.00040541223 -0.025332386 -0.044364005 -0.019271495 -0.015675643 0.007460828
-0.013388214 -0.024071658 -0.045379262 -0.020958753 0.007384158 -0.017550986 -0.02046177 -0.026828876
0.0046092407 0.0019440103 0.013104321 -0.0021418293 -0.0021291992 0.01924839 0.02936852 0.023639468
0.03785279 0.02132761 -0.0021794979 0.004073077 0.016479155 -0.010529466 -0.031804375 -0.005561346
-0.026825653 0.0024112433 -0.0067739403 -0.032840386 -0.05689108 -0.039692484 -0.027211986 -0.028099883
-0.039024204 -0.014645962 0.016311102 -0.022203708 -0.03423015 -0.02742878 -0.017744845 0.01388987
0.012655992 0.014426027 0.0043765903 -0.014531971 -0.0005462432 0.06684153 0.049297094 0.0021247643
-3.8676848e-05 0.010641233 0.04233524 0.03192057 -0.009216 -0.016710829 -0.011894818 -0.06583063
-0.047027774 -0.050841633 -0.018857565 -0.004258042 0.0038396798 0.0058944435 0.034897525 -0.0036163954
00000000: 56be 49bd 7176 7dbd 7c8b 18bd 19ff 20bd
00000010: a621 53bd e430 5abd b89b 82bd 94a0 28bd
00000020: a36d 48bb ea7f 5cbd a461 d6bc 4c25 3bbc
00000030: 16ee 8e3c 1f6e dcbc 4182 e6bd 784b 683c
00000040: c089 ed3d aacf 0d3e d6ba 293d b975 36bd
00000050: 1321 8f3b 5924 793d b9f1 1f3e d5f9 1d3e
00000060: 98cc d63c 9391 243b 1d56 9abb ee30 9dba
00000070: 3fc4 ecbb 8ec2 68bc 0599 953b 8d8d 8abc
00000080: dc3c 5cbd 0021 adbd 3c59 2cbd af18 1c3b
00000090: 5d8d 5abb c0bb 36bd e49f 65bd b12b a3bc
000000a0: 1124 a8bc d946 da3a 0673 0d3c d984 093c
000000b0: 860d c5bb 93f1 353c 62a2 adbb 2773 e33c
000000c0: 3d44 a73c d70d 25bc 5e87 ec3c 84fe ff3c
000000d0: caf8 6ebb a3db eabb 9da1 9e3b de44 893b
000000e0: 9b89 a63c 51cb 6d3c 0941 863c fa14 023d
000000f0: a7ee b5b9 d6d8 c6ba bc3e 563c 82ed da3b
00000100: 5d08 fb3c d13f d63b 2082 c7bc 4ff3 1abd
00000110: a505 35bd c1b3 03ba ea95 8e3c 4450 7abc
00000120: 8d34 2ebd 6f24 24bd 2dc6 adbc 7053 08bc
00000130: 8b04 3cbc a190 ffba 786b ac3a b900 1d3c
00000140: cceb 49bd ac69 20bd 0f58 dfbc 1d48 93bc
00000150: 2de1 8dbc 63cf 9ebc 757d b23b cca7 12ba
00000160: 5e34 103a add4 2d3c 790e ca3b ad04 5d3d
00000170: 1135 773d 5c54 063d 63c5 cd3c 54f9 ac3c
00000180: 7da3 773d b797 6e3d c08e 5b3d 3d35 8d3c
00000190: 0e6d 3dbc 9e38 d7bc 51b1 8cbc da14 04bd
000001a0: 869d bfbc 696c f6bb a86b 7bbc fad6 073c
000001b0: 5174 c9bb e980 1abd 78fe 3838 0919 353d
000001c0: 2a95 f43c 8b52 8bbb 0a29 49bd 294b afbb
000001d0: a3bd 883c 7537 193d 6abb dd3c fadf 00bd
000001e0: 3f2c d9bb 57b9 ed3c 3558 4d3d f387 1e3d
000001f0: 786c 413c 09df 0cbc 17d8 a2bc 4b7d dfbc
00000200: 398e 25bd 2ddd afbc 645e dc3b bd0b 4ebc
00000210: 3259 15bd 63c0 81bd a6b1 05bd 5a1b 89bb
00000220: 1b97 2dbb d6a4 23bc 2fcc 4ebc 9a1e 12bc
00000230: cdea bfba 2267 223c fd26 bf3c b7b8 5d3c
00000240: 0e11 e13b 4756 54bc e1a0 f63b aecf 013d
00000250: 0a01 9b3c c6b2 92bc 51be 4cbc 9db5 883b
00000260: 2e8b f5ba 3b9f b9bb 2713 973a e121 34bc
00000270: 943a a4b9 5492 93bc 8e95 b0bc bbd0 83bc
00000280: 975b 53bc ccde 6eba 49a6 a6bc f2a9 ebbb
00000290: afce 59bc 4306 aebb 00d4 cc3b 6801 92bb
000002a0: 7860 b03c 0394 24bb 4c97 6abb 1396 6cba
000002b0: 21e3 893c e364 1b3c d3ef 8fbc bee8 2f3c
000002c0: 9f0b b83c 40d5 3cbc f0aa 31bd 2bc6 efbc
000002d0: ee2b 7fbc b941 22bc af07 01bc 3866 04bd
000002e0: de22 4cbb 70f3 62bc 828d d4b9 dd85 cfbc
000002f0: 08b7 35bd 41df 9dbc 356a 80bc f679 f43b
00000300: 3d5a 5bbc ed31 c5bc 9bdf 39bd b1b1 abbc
00000310: cff6 f13b 16c7 8fbc 719f a7bc 3bc8 dbbc
00000320: 1d09 973b 29ce fe3a 82b3 563c ef5d 0cbb
00000330: 098a 0bbb cdae 9d3c 4096 f03c 8fa7 c13c
00000340: 870b 1b3d 3db7 ae3c e8d5 0ebb 7277 853b
00000350: 4bff 863c c883 2cbc 4e45 02bd f43b b6bb
00000360: 79c1 dbbc f305 1e3b eef7 ddbb a483 06bd
00000370: 9f06 69bd 9694 22bd aceb debc ba31 e6bc
00000380: d8d7 1fbd 9ef5 6fbc dc9e 853c 8de4 b5bc
00000390: ea34 0cbd 52b2 e0bc a35d 91bc 5692 633c
000003a0: 145b 4f3c 255b 6c3c 8069 8f3b 8117 6ebc
000003b0: c331 0fba 36e4 883d c0eb 493d a13f 0b3b
000003c0: f338 22b8 9158 2e3c b767 2d3d 25bf 023d
000003d0: b5fe 16bc 26e5 88bc 7ce2 42bc 36d2 86bd
000003e0: 32a0 40bd 513f 50bd 2e7b 9abc 0c87 8bbb
000003f0: 23a3 7b3b 2d26 c13b b5f0 0e3d 0c01 6dbb

conv3.bias f4 [2]
0.61593467 -0.41593224
00000000: e5ad 1d3f 12f5 d4be

conv3.weight f4 [2, 32, 1, 1]
0.075565465 0.074646465 0.10525709 0.09896092 0.109223135 0.12542349 0.08698975 -0.06538105
-0.058277085 0.07591467 0.08959484 -0.07844329 0.12763365 0.083028235 -0.05549873 -0.06553786
-0.07661471 0.11472444 -0.12760966 0.09801458 -0.12918353 0.084645994 0.06779651 -0.056090094
0.1352148 0.06273577 0.10934935 -0.043829683 -0.086885035 0.06626967 0.077699676 0.068147056
-0.08986272 -0.0912129 -0.113729306 -0.10770467 -0.1071809 -0.12191072 -0.0842279 0.064840995
0.076858416 -0.07325618 -0.08461233 0.061899826 -0.11654674 -0.09140687 0.058978006 0.061744113
0.09700983 -0.09996577 0.11515807 -0.103362784 0.11098049 -0.082105435 -0.06678659 0.057611402
-0.12392018 -0.06377014 -0.11093511 0.05742587 0.0845077 -0.08084339 -0.07652232 -0.08343509
00000000: 11c2 9a3d 3fe0 983d 0791 d73d 06ac ca3d
00000010: 61b0 df3d 046f 003e af27 b23d 80e6 85bd
00000020: f4b3 6ebd 2779 9b3d 807d b73d e0a6 a0bd
00000030: 65b2 023e b50a aa3d a352 63bd b738 86bd
00000040: 2ce8 9cbd a6f4 ea3d 1bac 02be debb c83d
00000050: b048 04be e15a ad3d e6d8 8a3d babe 65bd
00000060: c075 0a3e 9d7b 803d 8df2 df3d c186 33bd
00000070: c8f0 b1bd 65b8 873d 0221 9f3d af90 8b3d
00000080: f209 b8bd d4cd babd e9ea e8bd 4494 dcbd
00000090: a981 dbbd 54ac f9bd ad7f acbd 5bcb 843d
000000a0: f267 9d3d 5607 96bd 3b49 adbd ac8a 7d3d
000000b0: 0fb0 eebd 8633 bbbd ec92 713d 65e7 7c3d
000000c0: 17ad c63d dbba ccbd ffd7 eb3d deaf d3bd
000000d0: bd49 e33d e526 a8bd 68c7 88bd eff9 6b3d
000000e0: ddc9 fdbd eb99 82bd f231 e3bd 6437 6b3d
000000f0: 5f12 ad3d 3891 a5bd bcb7 9cbd 04e0 aabd

conv4.bias f4 [3]
1.0504935 -0.008274549 -0.012924643
00000000: 9276 863f f991 07bc e2c1 53bc

conv4.weight f4 [3, 32, 1, 1]
-0.001331356 -0.0008041027 0.0043402254 -0.00042091383 0.0021322572 0.0014796009 0.003206331 -0.0010117206
2.1377433e-05 -0.004739607 -0.00018338504 -0.0020291195 -1.8173403e-05 -0.0006589212 -0.003176153 -0.0009019465
0.0007026112 -0.00198156 0.0020732938 0.00068948785 0.0005795707 0.0009714027 -0.0014447232 -6.5788576e-05
0.0013550069 -0.0010475008 0.002535399 0.0050527137 -0.002262852 -0.0015333225 -0.000684807 -0.002793348
-0.00030740505 0.0013014697 -0.0030834903 -0.001300779 -0.0066228095 0.001750174 -0.0011205415 -0.00023770171
-0.0054442124 0.003885456 0.00048464982 0.0004043312 0.00083603436 0.0015651076 0.0009336672 -0.00018722625
-6.65868e-05 0.00028064646 -0.00037470064 -0.0020172077 -0.00040329385 -0.0015281541 -0.0012065149 0.00021796163
0.003708041 0.0018479321 0.0011351428 0.008546085 -0.0035945196 -0.00043215428 6.155676e-05 -0.0016006602
0.00087077543 -0.0015278807 0.0022975309 0.0011520431 0.0024064693 8.45052e-05 -0.00039606908 0.0019303364
-0.004655849 -0.0004723459 -0.0011185003 -0.0013571613 -0.0036605762 0.0006051186 -0.0020676993 0.00043707568
0.003499891 -0.0016630264 -0.0048736343 0.00097204733 -0.00034719164 -0.002103457 0.0017041339 0.00060407666
-0.00038887942 -0.0010247176 0.0043924665 0.004778142 0.0062907315 -0.0012390711 0.00035869097 0.0010507727
00000000: e580 aeba 6bca 52ba 7338 8e3b 19ae dcb9
00000010: 57bd 0b3b 2bef c13a 4f21 523b b69b 84ba
00000020: b053 b337 b54e 9bbb 0c4b 40b9 fafa 04bb
00000030: 1673 98b7 74bb 2cba 0127 50bb 9b70 6cba
00000040: 712f 383a 0fdd 01bb 19e0 073b bfbe 343a
00000050: 55ee 173a bba5 7e3a de5c bdba f9f7 89b8
00000060: 7d9a b13a 4b4c 89ba f028 263b 3c91 a53b
00000070: 5b4c 14bb c4f9 c8ba 9f84 33ba 9a10 37bb
00000080: 352b a1b9 1496 aa3a 6214 4abb e77e aaba
00000090: 2704 d9bb 1866 e53a 22df 92ba 913f 79b9
000000a0: 5d65 b2bb 22a3 7e3b 9918 fe39 6afc d339
000000b0: 5129 5b3a 4c24 cd3a 58c1 743a 2a52 44b9
000000c0: 84a4 8bb8 bb23 9339 7873 c4b9 2133 04bb
000000d0: 2f71 d3b9 584c c8ba ec23 9eba a18c 6439
000000e0: 9b02 733b 5036 f23a 12c9 943a e104 0c3c
000000f0: 0892 6bbb c492 e2b9 0918 8138 3ecd d1ba
00000100: c044 643a 2b43 c8ba 2c92 163b 2700 973a
00000110: dbb5 1d3b 6238 b138 7ea7 cfb9 5703 fd3a
00000120: 1890 98bb 32a5 f7b9 a49a 92ba c7e2 b1ba
00000130: 47e6 6fbb d2a0 1e3a 3d82 07bb 4e27 e539
00000140: 6d5e 653b e8f9 d9ba 02b3 9fbb fed0 7e3a
00000150: 4607 b6b9 27da 09bb 3f5d df3a e65a 1e3a
00000160: 83e2 cbb9 d14f 86ba aeee 8f3b f691 9c3b
00000170: 7b22 ce3b 5468 a2ba b00e bc39 15ba 893a
