rnet.onnx (onnx, 321838 bytes, 12 tensors)

conv1.bias f4 [8]
000000 dc a2 10 3e 7d 5b 10 3e 6e 5f ee 3d 90 74 ea 3d
       0.14124626 0.140974 0.116392955 0.11448014
000010 a4 c0 38 3e 10 e8 21 3e b3 63 93 3d a2 13 ef 3d
       0.18042237 0.15811181 0.071967505 0.116736665

conv1.weight f4 [8, 3, 3, 3]
000000 32 2e e6 bb 87 c2 1d 3d 40 44 91 bd fa 9b 99 3c
       -0.00702455 0.038515594 -0.07093096 0.018751133
000010 e0 7e 45 bd f2 23 9d 3d d0 ea 69 bc c6 c8 cf 3c
       -0.0482167 0.07672872 -0.014277175 0.02536429
000020 4b f9 1f 3d 5d 75 e9 bd 1d 81 63 bd 44 6b 02 be
       0.039056104 -0.113993384 -0.055543054 -0.12736231
000030 30 62 a6 bc e9 e5 8b bd f0 9e 5c 3d c1 d1 be 3d
       -0.020310491 -0.06830961 0.053862512 0.09317351
000040 5d 50 bc 3d 85 49 e0 3d df 0b 4e be 0c c9 01 be
       0.091950156 0.10951523 -0.20121716 -0.1267435
000050 3a a5 88 be af fe 06 bd 38 ba b5 bd fc af a3 bb
       -0.26688558 -0.03295773 -0.08873409 -0.004995344
000060 6e 4c 5c 3e 4f d2 7f 3e bd 4e 70 3e f6 9b d6 3c
       0.2151353 0.2498257 0.23467536 0.026197415
000070 70 03 18 bc be 3d 31 3d cd ef 9f bc 55 dd 1e 3e
       -0.009278163 0.043271773 -0.019523526 0.15514119
000080 89 a9 51 3d c9 ba eb bb 3c e7 93 3d dc e2 af 3c
       0.051187072 -0.0071938974 0.07221839 0.02147048
000090 d4 db 62 3e 17 86 1b 3e 33 57 4a 3e 78 1b 78 3d
       0.2215417 0.1518787 0.19759826 0.06057307
0000a0 98 47 28 3e 55 cb f6 3d 1d 2a c4 bc 06 a9 20 bc
       0.16433561 0.12050501 -0.023945862 -0.009805923
0000b0 e5 61 50 bc 8e 04 90 3d 4e e3 45 be 91 02 45 bd
       -0.012718652 0.07032119 -0.19324991 -0.04809815
0000c0 aa e3 07 be 38 1c 11 be 5b af 24 be bb 84 07 be
       -0.1327044 -0.14170921 -0.16082518 -0.13234226
0000d0 9f c2 71 be f1 80 4a be 82 c1 38 3d 5c 06 03 3d
       -0.23609398 -0.1977575 0.04510642 0.031988487
0000e0 b8 4f a7 bc b0 a8 c5 3c 4f af a9 3d 23 1c 95 bc
       -0.020423755 0.024128288 0.082853906 -0.018201893
0000f0 77 28 75 bd 23 2d ec 3b 4e 0f 85 bb 16 b5 1b 3d
       -0.059853043 0.007207529 -0.0040606624 0.038014494
000100 7d 5d 8e 3d 45 a2 56 3c e6 f3 08 3c 0d 43 e8 3d
       0.06951425 0.0131002115 0.008358931 0.11340914
000110 3a 8a 6e bc 5a b4 56 be 92 7d d9 bd 5d fe cf bd
       -0.014559323 -0.20967236 -0.10619654 -0.10155938
000120 56 c3 88 3e 97 38 79 3e 24 68 68 3e e4 66 8f 3d
       0.2671153 0.24337994 0.22695976 0.07002047
000130 70 c2 fd 3d 87 ad 25 3d fd 04 b6 be e1 a5 93 be
       0.12390602 0.04044869 -0.3555068 -0.28837493
000140 12 b4 6b be 4f 67 4e bd 0b 70 3b 3e b5 0a 62 be
       -0.2301791 -0.05039149 0.1830446 -0.22074397
000150 ac 2f 24 be 08 77 83 3e c0 97 9f bd f9 44 96 bd
       -0.1603381 0.2567675 -0.07792616 -0.07337374
000160 3a e0 20 3d 1e e0 94 3d 67 b5 46 bd 3a 8f 93 3e
       0.03927634 0.072693095 -0.048512843 0.2882021
000170 db 18 99 be 44 00 2a be f9 f5 c1 3e 6d 0b 08 be
       -0.29901776 -0.16601664 0.37882975 -0.13285609
000180 30 cc e0 bd 31 ee 65 3d 19 cc 2b 3d 04 63 e9 bc
       -0.10976446 0.05613536 0.04194269 -0.028489597
000190 fe c8 b7 3e 27 0f ce be d6 4a 30 be a6 60 df 3e
       0.35895532 -0.40245935 -0.17216048 0.43628424
0001a0 66 d9 6a be ba dd b7 bd f4 8e 10 3e c9 9e 25 3b
       -0.22934493 -0.08977838 0.14117032 0.0025271645
0001b0 06 eb c1 bd 38 29 a5 3c ee ca 91 bb a5 4c c0 3a
       -0.09468655 0.020161256 -0.00444924 0.0014671279
0001c0 4a a2 31 bd 83 02 66 bc 49 10 41 3e af 90 f6 bb
       -0.04336766 -0.014038685 0.18853869 -0.007524572
0001d0 c9 9e 8c bc dc d5 42 be e4 58 ae 3d c2 e2 c4 3d
       -0.017165558 -0.19026893 0.08513048 0.09613563
0001e0 bd 7c 23 be 95 37 fc bc a9 6e 7b 3d 05 dc 9d 3c
       -0.15965553 -0.030788222 0.06138483 0.019269953
0001f0 2c 4d 22 bd 64 d0 81 3b b2 87 8d be 6c dc 0f 3e
       -0.039624378 0.0039616097 -0.2764259 0.14048928
000200 e0 84 84 3e 89 d9 9e be 6e df 51 3c 0d 74 75 3e
       0.25882626 -0.3102534 0.012809617 0.23970051
000210 22 ec 50 be 91 d7 a0 3c d9 50 69 3e b5 fa 1b bd
       -0.20402578 0.01963404 0.22784747 -0.03808089
000220 cd 1f a9 3d de ce 97 bb 0b 1f 3c 3d 21 7d fb bd
       0.08258019 -0.004632815 0.045928042 -0.12279726
000230 b5 84 7f bd b2 48 9b bc f7 86 18 be 3e d5 ab 3e
       -0.06238242 -0.018955562 -0.14895235 0.33561128
000240 6a b4 70 3d 3e 0f 04 3e c1 1a 9b bd fa 8b dd 3d
       0.058765806 0.1289644 -0.07573462 0.10817714
000250 8d 23 13 be 41 0c 25 be 6d 74 8d bb cd f1 72 be
       -0.1436903 -0.16117956 -0.0043168576 -0.23725052
000260 bb b2 1c 3e 2d 24 4d 3e ad 22 7c 3e 06 8e ef bd
       0.15302555 0.20033331 0.24622603 -0.11697011
000270 f2 e7 ab 3e 7d 9d 0f bd 60 c8 99 be 26 1b 1c 3e
       0.33575398 -0.035062302 -0.30035686 0.15244731
000280 29 16 7d be 07 03 16 be d0 0f 1d 3d 34 ec 36 3e
       -0.24715485 -0.14649592 0.038345158 0.17863542
000290 74 a5 0b 3e 0c 2a c8 bd fb 0c 9c be 74 d6 5e be
       0.13637334 -0.09773645 -0.30478653 -0.21761495
0002a0 d2 b7 51 3d 78 59 33 3e c8 be b9 3d 7c eb 7c 3d
       0.051200695 0.17514598 0.09069592 0.061748013
0002b0 af df 74 3e 56 7f 6c 3e 49 78 24 be 8f 9d eb be
       0.23913454 0.2309545 -0.1606151 -0.46018645
0002c0 68 ab a1 be 75 00 bf 3d 59 bd 00 3e d8 09 b5 3d
       -0.31576085 0.09326259 0.1257223 0.08839768
0002d0 f0 6f b7 3d bf 63 69 3e e9 19 6a 3e 4e a9 2d be
       0.08956897 0.22791956 0.22861446 -0.16959116
0002e0 03 5b fa be 5b 39 92 be 4e e8 05 3e a5 12 1a 3e
       -0.4889756 -0.28559384 0.13076898 0.15046175
0002f0 36 5b 31 3e 76 25 90 3c 30 af 85 3d b2 94 ac 3c
       0.1731995 0.017595988 0.06527555 0.021066997
000300 3f 71 8f 3c ce 1b 24 3d 32 e9 81 3c 3a 2f 4d 3d
       0.017510055 0.04006558 0.015858267 0.050093867
000310 9c 3f 1e 3d ea d1 f5 bc 32 d2 5e be 2a 63 16 be
       0.03863488 -0.030007321 -0.2175987 -0.14686266
000320 61 af 77 be 08 45 29 be d2 de b5 bd 26 b4 3a be
       -0.24187995 -0.1653024 -0.0888039 -0.18232784
000330 ae 25 32 bd dc 6c ac 3b b2 98 aa bd d1 d7 be 3d
       -0.043492965 0.0052620005 -0.083299056 0.093185075
000340 a9 34 00 3e fd 66 5d 3e a2 ec c6 3d 87 f0 b2 3d
       0.12520088 0.21621318 0.09713103 0.08737283
000350 6a 54 66 3e 65 e7 fa bc 0f b4 4f bd 83 c4 be 3d
       0.22493139 -0.030627916 -0.050708827 0.093148254

conv2.bias f4 [16]
000000 3b 48 d6 3d bb 44 98 3d 13 b3 ce bc 06 c6 c3 3d
       0.104629956 0.07434984 -0.025231874 0.09559254
000010 54 d9 c7 3d c9 03 4f 3b 03 dd 51 3e af 26 1c 3e
       0.09758249 0.003158795 0.20494466 0.15249132
000020 fb bd 3b 3e d4 3d 20 3e ba 5f 57 3d 31 14 ee 3d
       0.1833419 0.15648586 0.052581526 0.11624945
000030 7f df b8 3d 69 04 9f 3d fd 54 5a 3d 60 d1 d3 3d
       0.090270035 0.07764513 0.053303707 0.103426695

conv2.weight f4 [16, 8, 3, 3]
000000 4e 32 73 bc 74 e9 41 bd fc cc fe bc 7d 83 b3 3d
       -0.014843537 -0.04734178 -0.031103604 0.08765314
000010 15 0e ac bd 53 aa 8e bd 0a c0 cf 3c ff 26 fa 3c
       -0.084011234 -0.069660805 0.025360126 0.030536173
000020 fd 6e 81 bd 7f 17 00 3d 7f 05 99 bc 6c 87 09 3d
       -0.063199975 0.031272408 -0.018679379 0.033576414
000030 89 b7 2b bd b0 fd a8 bc 49 80 a1 3c 71 cd 1b bc
       -0.04192308 -0.02062878 0.019714491 -0.00950943
000040 c6 83 f3 bc d6 db 2b 3d 1e 02 22 3d 90 97 c4 bb
       -0.02972592 0.0419577 0.0395528 -0.005999513
000050 a0 d8 5d 3d b1 de c0 bc e8 ca a7 3c e0 a3 24 3d
       0.054161668 -0.023543688 0.020482495 0.040195346
000060 95 80 95 bb ad ee 10 bc 43 70 69 3d 5d 60 a5 3c
       -0.0045624473 -0.008845967 0.056991827 0.020187551
000070 fa 37 c4 bc 1b 4e 86 bd a2 91 2a bd 1c a7 53 3c
       -0.023952473 -0.06557866 -0.041642793 0.01291826
000080 27 2c 96 bc 7a e1 83 3d a0 03 aa b9 e3 ec 50 bc
       -0.0183316 0.064394906 -0.00032427628 -0.012751791
000090 d0 57 4c 3e 02 8d 70 3d 6d 84 d2 3d 5a 4b af 3d
       0.19955373 0.058728226 0.102791645 0.08559294
0000a0 91 67 bd 3d 32 1c 43 3d 2d 61 28 3d 30 f5 8b 3d
       0.09248269 0.04763431 0.0411083 0.06833875
0000b0 d0 3e ce 3d 36 9b 17 be 95 7d 91 bd 3e 67 88 bd
       0.10070574 -0.14805302 -0.07104031 -0.06660317
0000c0 91 44 80 bc 2c 22 11 be f4 b8 91 bd b7 ed 4e 3c
       -0.015657695 -0.14173192 -0.07115355 0.012629918
0000d0 6c 6c a8 bd 79 45 be bd 1e 2e f4 bc f9 9f 28 bc
       -0.08223805 -0.092905946 -0.029807147 -0.010292047
0000e0 cd 8b e4 3c 48 8b 0b bd 72 3f 22 bd 4a 17 ac 3c
       0.027898693 -0.034068376 -0.039611287 0.021007199
0000f0 cb dc cd bc 2a 7e 1f bb 08 3b 21 bc 3a 85 9c 3c
       -0.025129696 -0.0024336674 -0.009840734 0.019106496
000100 4a d1 27 bc 2c a7 9f bc bc 66 80 3d fc 75 7b 3c
       -0.0102427695 -0.019488893 0.06269595 0.015347954
000110 e8 04 a8 bd 85 c1 29 3d de 44 4f 3b 94 d2 99 bd
       -0.08204061 0.04144432 0.0031626741 -0.07510868
000120 52 96 4b be 91 7d 5f be 98 2c db bd 25 83 b2 bc
       -0.19881561 -0.21825244 -0.10701865 -0.02179105
000130 ab 76 f3 bd 87 e7 06 3d 5f a6 14 3d 63 20 7e 3d
       -0.118878685 0.032935645 0.036291476 0.062042605
000140 d0 d9 87 3d dd ab 1b 3c 38 6a 9b bd 21 9a 66 3d
       0.06633341 0.009501425 -0.07588619 0.056299333
000150 df c2 3c 3d 8a 6d e4 bc f0 92 f1 3d 0e d5 92 3d
       0.04608428 -0.027884264 0.11795604 0.07169543
000160 c4 e0 b9 3c ae f7 c8 3d 64 17 89 bd ca cd b8 bd
       0.022690184 0.09812866 -0.066939145 -0.09023626
000170 cd 3c e5 3c ba c5 6f bd f6 cb 42 be 14 02 63 bc
       0.027983094 -0.058538176 -0.19023117 -0.013855476
000180 41 8c 11 bd 50 e3 e7 bd c1 59 95 bb bb 2e a8 3d
       -0.035534147 -0.11322653 -0.0045578186 0.08212038
000190 e5 63 37 3d 42 20 29 3d 8a af 87 3b 9f 48 e5 bc
       0.044773 0.04129053 0.004140799 -0.02798873
0001a0 55 c3 67 3c b2 90 45 3d 13 b2 0d 3c 36 ad 5e 3d
       0.014145692 0.048233695 0.008648413 0.054364406
0001b0 52 46 8b 3d 09 cc 8f 3d 83 5b 2f 3d f1 9a 16 3d
       0.06800522 0.070213385 0.04281188 0.036768857
0001c0 f5 dc 82 bd af ba ab 3d 8e f7 7d 3d 78 26 d5 bc
       -0.063898005 0.083852164 0.062003665 -0.02601932
0001d0 d9 71 f1 3d 85 30 84 bb e1 b1 51 3c 8a af 5e 3d
       0.11789293 -0.0040341043 0.012798757 0.054366626
0001e0 8f 07 48 3d 98 21 fc bd 74 8a 57 3d 41 2c 7a 3d
       0.048835333 -0.12311095 0.052622274 0.06107736
0001f0 0b 1b a0 bc 45 ca e8 3d c8 d3 31 be 7c 91 2e be
       -0.019544145 0.11366705 -0.17365944 -0.17047685
000200 b2 5f 37 bd 40 c6 b9 bd e3 f2 44 be 61 0c 2a bd
       -0.044768997 -0.09071016 -0.19233279 -0.04151571
000210 ad 36 ae 3c b4 43 61 bd 2f d9 c4 3c 1f 59 18 3e
       0.021266306 -0.054996207 0.024029342 0.14877747
000220 a2 5c 39 3e 57 7f 48 3e a5 38 fe 3c 34 f3 90 3c
       0.18101743 0.19579826 0.03103287 0.017694093
000230 b8 95 83 3d ed 9c c2 bb 20 b6 11 be b1 a0 9c bd
       0.06425041 -0.005939117 -0.14229631 -0.07647837
000240 4f 97 32 bd 37 ae dc 3c 14 80 51 bb a8 2e 41 3c
       -0.04360133 0.02693854 -0.003196721 0.011790909
000250 ab 59 d1 3c be 42 60 3d c5 a5 1f 3d 8c 6e c7 bb
       0.025555452 0.05475115 0.03897645 -0.0060861763
000260 18 ed 35 3c f8 ba 98 bc 06 ac 71 bd 81 ce 3b 3a
       0.011103891 -0.018643841 -0.059001945 0.00071642554
000270 cb ed 92 bc e2 b9 34 bd 36 50 04 3c c3 78 86 bc
       -0.017935654 -0.044122584 0.008075764 -0.016415006
000280 87 f1 a1 bb bd b0 d6 3c 21 89 f6 3d ba 99 fb 3c
       -0.0049421224 0.026207322 0.12037874 0.030712951
000290 0d 62 15 3e a9 10 b6 3d 73 2e e4 bc 2b 33 86 3d
       0.14588185 0.088898964 -0.02785418 0.06552728
0002a0 ad c1 b3 bd bc 64 2f bd 4c 69 ac bd c4 ce db 3d
       -0.08777175 -0.042820677 -0.08418521 0.10732797
0002b0 a4 9b 0a 3d 91 71 27 bd 12 1d 96 bd 97 b0 b1 bd
       0.033839837 -0.04087979 -0.073297635 -0.0867626
0002c0 d5 a1 38 bd f3 df 67 bd 0f 00 63 bd 15 04 58 3c
       -0.04507621 -0.05661006 -0.055419978 0.013184567
0002d0 20 7a 3b bc f5 18 0c 3d 9d 58 13 bd ba 12 80 3c
       -0.011442691 0.03420349 -0.03597318 0.01563393
0002e0 61 7b 2e bd bd c3 17 be e5 aa 7f bc fc 34 de bd
       -0.042598132 -0.14820762 -0.015604709 -0.1084995
0002f0 e0 bd f8 bd d5 fd c7 3c a1 37 d2 3c 69 25 a5 3d
       -0.12145591 0.024413029 0.025661292 0.08063776
000300 52 5e 50 3b 64 fe 22 be 56 cc ef bd 00 c0 19 be
       0.00317945 -0.15917355 -0.11708896 -0.15014648
000310 a5 76 94 bd 72 3f 15 be 88 bb 04 3e 69 c2 3f bd
       -0.07249192 -0.14574984 0.12962162 -0.046816263
000320 cb d0 d3 3d 12 3f 9b 3c 4f cd 3f 3d 1a fa 70 3d
       0.103425585 0.018950973 0.046826657 0.058832265
000330 f2 3d 42 bb be a3 9d bd a8 09 d1 3d 46 7b c0 3d
       -0.0029638973 -0.07697247 0.1020692 0.093985125
000340 f1 47 84 3d 7d e0 91 3d bd 0e 3a 3c 81 f6 e7 3b
       0.06459034 0.07122896 0.011356053 0.007078946
000350 62 f7 25 bd 14 46 73 bd f0 cf 23 bd 42 04 c9 bd
       -0.040519126 -0.059393004 -0.039993227 -0.09815265
000360 26 23 31 3c 50 e0 9a 3c 9e a8 c4 bc 91 04 20 3d
       0.010811603 0.018905789 -0.024006184 0.039066855
000370 3c 38 13 3d 3d 0e 84 bc b3 ef a5 3c f1 f7 99 3c
       0.0359423 -0.01612007 0.020255899 0.018794985
000380 8c e7 ae 3a 4b 7f 44 3e fc b9 16 bc 29 f7 06 bc
       0.0013344153 0.19189183 -0.009199616 -0.0082376385
000390 c4 b6 02 3e 38 e2 40 bd 96 34 e2 bc 89 df 38 3e
       0.12765032 -0.04709074 -0.027612966 0.18054022
0003a0 6c 4a 10 3b 42 7e b9 3b 4e 78 88 bd 72 62 ac bc
       0.0022017015 0.005660803 -0.06663571 -0.021043036
0003b0 89 b9 e7 bb dc 99 f9 bc d5 88 fd 3b a9 d8 a8 3c
       -0.007071678 -0.030468874 0.007737259 0.020611124
0003c0 de 3c 2a bd 3d 27 0d 3c d5 10 c4 3c 7d ef 0f 3c
       -0.041561954 0.008615312 0.023933807 0.008785126
0003d0 99 e9 a2 bc 70 57 94 bc b6 21 91 3b 5a 41 48 bb
       -0.019886779 -0.0181081 0.0044290675 -0.003055653
0003e0 14 e9 d3 bc cb 43 d7 3b 6b 57 1f 39 ad dd 14 bc
       -0.025867976 0.006569361 0.00015195987 -0.009086055
0003f0 5c 1c 58 3d dc 69 03 bc 08 74 bd bd 30 a6 de 3c
       0.05276142 -0.008020844 -0.09250647 0.027178854

conv3.bias f4 [64]
000000 5e bc 6b 3e 70 72 e0 3e 1c 44 77 3e 91 d9 8b 3c
       0.23021075 0.4383731 0.24147075 0.017071517
000010 28 c3 3e 3c 20 56 16 3e b6 4c be bd 97 52 55 3e
       0.011643209 0.14681292 -0.09291975 0.20832287
000020 ff 9c e6 3d 4a 9e 19 3e da 25 0b 3e e3 32 67 3d
       0.112604134 0.15001789 0.13588658 0.056445014
000030 83 05 66 3e 08 3f 3b bd 15 0c 1c 3e 70 e9 93 3e
       0.2246304 -0.04571441 0.15238984 0.28889036
000040 46 ee a0 bd de 07 cc 3d 94 0a 90 3e 69 80 ed 3d
       -0.07857947 0.09962438 0.2813307 0.11596758
000050 3d f4 b8 3d 61 65 59 3e f1 7e 11 bc 09 6a 05 3f
       0.0903096 0.21230079 -0.008880363 0.5211492
000060 fa 32 0e bc bf 1d 7d bd 07 04 b8 3e 2e ea 72 3e
       -0.008679146 -0.061795946 0.35940573 0.23722145
000070 ba 98 35 3e 71 84 48 3e 70 b2 cb 3e 65 1a a5 3d
       0.17734042 0.19581772 0.39784575 0.08061675
000080 88 1c 8c 3e 5f e3 32 3e ba d9 73 3e 80 8e 93 3e
       0.27365518 0.17469548 0.23813525 0.28819656
000090 7f 59 78 3e 57 bf 54 be 9b 9b 33 3e 90 8e b3 3b
       0.2425289 -0.20776115 0.17539828 0.0054796413
0000a0 86 32 ca be 6f 60 0c 3f 6c d7 0e bc 2d 9f be 3e
       -0.3949167 0.54834646 -0.008718353 0.37230816
0000b0 4b 53 b6 3d 78 65 7a 3e a4 45 b9 3d e1 7b 1c 3e
       0.089026056 0.2445277 0.09046486 0.15281631
0000c0 7f ba cc 3e 1c 2e c6 3d f0 0a 02 be 34 44 0a bd
       0.39986035 0.096767634 -0.12699485 -0.03375645
0000d0 0e 67 40 3f 80 1b 7b 3e a1 d1 5e 3e ba 16 8a 3d
       0.7515725 0.24522209 0.21759655 0.06742616
0000e0 a7 44 f4 3d 7d a2 42 3e f6 bd dc 3d 81 dc 43 3d
       0.11927157 0.19007297 0.1077842 0.04781771
0000f0 28 09 30 3e 05 c0 6e 3e ed 13 35 3e d6 97 72 3e
       0.17190993 0.23315437 0.17683382 0.23690733

conv3.weight f4 [64, 16, 2, 2]
000000 24 0f 97 bb 4e 75 82 3d 4d c4 62 3d 44 fb 40 3d
       -0.004609959 0.0637003 0.05536299 0.047114626
000010 8c 45 c0 3c de 58 62 3d 1a 12 ce 3c 89 23 79 bc
       0.023470663 0.05526053 0.025155116 -0.015206226
000020 84 87 04 3d 81 67 3b 3d e0 ce 1d bb 4a 6c 5c bd
       0.0323558 0.045753006 -0.0024079606 -0.05381421
000030 d9 d2 82 bc 24 5e c2 3d 74 51 39 3b 80 ea b8 3c
       -0.01596968 0.09490612 0.002827731 0.022572756
000040 92 88 4d 3a 40 f3 02 3b 08 9f 3f bb 90 b3 c5 3b
       0.000784048 0.0019981414 -0.0029239077 0.0060333684
000050 02 51 db bc 4b ff 57 bd 97 35 4a bd db 0a 48 bd
       -0.026772026 -0.0527337 -0.049367514 -0.048838478
000060 55 dc de 3b 13 0e 13 3d 03 14 39 3d cf 6c bf bc
       0.006801168 0.035902094 0.0451851 -0.023367314
000070 1e 88 11 bd 74 d7 2b bb fa b0 33 3d 2c 7b 42 3b
       -0.035530202 -0.002622095 0.04386995 0.0029675467
000080 5e e7 a9 b9 77 2f 6b 3c 0d dd 8e 3b 42 2e 22 bd
       -0.00032406574 0.014354578 0.0043598474 -0.039594896
000090 c8 bd 0a 3c 4e dc 54 3d 66 3b e1 bc f7 42 99 bc
       0.008468099 0.05196791 -0.027494144 -0.01870869
0000a0 86 4c 12 bd ae 0d d2 bc e4 03 f2 bc 6e dd 1e 3d
       -0.03571751 -0.025641289 -0.02954287 0.03878539
0000b0 f4 94 8b bd b3 f2 49 bd 5e b6 14 bd 9c 63 32 bc
       -0.0681552 -0.04930372 -0.03630673 -0.010888007
0000c0 48 2a dd bd 55 37 02 bd 3e 71 3c bc ec 58 67 bc
       -0.1079908 -0.03179105 -0.011501608 -0.014120322
0000d0 fd f6 99 3d 84 9f 1a 3d da 06 ba 3c 2a c4 05 bc
       0.075178124 0.037749782 0.022708345 -0.008164445
0000e0 b5 56 88 bd 0e 80 8a 3d b2 92 3a bd e1 bd 23 3a
       -0.06657163 0.06762706 -0.045550056 0.00062462507
0000f0 a3 fa 84 bc a8 e8 e7 38 35 16 e3 3c 3b f4 9d 3c
       -0.016232794 0.00011058274 0.02772055 0.019281497
000100 bc 7e 92 bd d8 ea f7 bc a5 a4 a2 bd ed 30 7f 3c
       -0.07153079 -0.03026335 -0.0794156 0.01557563
000110 2b 69 f8 bc a7 90 b5 bc 93 fd 3f 3d a7 98 2f 3d
       -0.030323585 -0.022163702 0.046872687 0.04287019
000120 0c 5a d1 bd 6c 6f bf bc 4d 12 1c 3c cc 49 e0 3c
       -0.10222253 -0.02336856 0.009525848 0.02737894
000130 28 06 0f 3d 60 25 ce 3c 67 9f 67 bd 38 5f d4 3c
       0.03491798 0.025164306 -0.056548502 0.02592431
000140 6f 12 83 bb 22 87 0c bc b8 81 d3 3b a9 cb 54 3c
       -0.004 -0.00857714 0.0064546727 0.0129880095
000150 13 20 8e bd 81 c9 9d bd 48 e7 54 3c e2 c2 26 3c
       -0.069397114 -0.077044494 0.012994595 0.0101783
000160 ef 95 77 bb 9f e3 d9 3a aa a7 69 bc 63 72 09 3b
       -0.0037778576 0.0016623623 -0.014261166 0.002097272
000170 e7 eb 7b bd 3b a2 38 3e 55 cc 95 39 aa 2d eb bd
       -0.06150427 0.18030636 0.00028571734 -0.11483319
000180 3b f5 73 bd 8d 6e c1 bc 82 59 73 3d cf f4 e0 3c
       -0.059560042 -0.023612285 0.059411533 0.027460484
000190 91 8c 1a 3d 16 99 5a 3c 25 c6 ac 3c 64 d4 5b bd
       0.03773171 0.013342163 0.021090576 -0.05366935
0001a0 38 6a be 3d c3 d5 96 bd 7d c4 3b bc a1 96 39 bd
       0.09297603 -0.073649906 -0.011460421 -0.045309667
0001b0 37 65 41 bd 1b 92 92 bc 30 d1 99 bd f9 9c d1 3d
       -0.047215667 -0.017891934 -0.075106025 0.10235018
0001c0 b3 ec 63 bd 4a 2b a7 3c 46 a2 1d bd 9b 55 96 3d
       -0.055645656 0.020406384 -0.038484834 0.07340547
0001d0 fa 7c ac bb ea 3a d3 3b c0 b9 8d bc 80 9d 14 3c
       -0.005263922 0.006446232 -0.017300487 0.009070754
0001e0 8b 77 14 3d a9 67 fb bc f7 a9 3b 3c ec b4 f0 bb
       0.036246818 -0.030689077 0.011454097 -0.0073457863
0001f0 17 23 58 3e c5 36 8e bd 89 96 f2 bd 60 48 43 3c
       0.21107136 -0.0694404 -0.118451186 0.011919111
000200 00 f3 14 bd 12 4e f8 bc 3c b3 15 3d ac 87 d6 bb
       -0.036364555 -0.030310664 0.036547884 -0.006546935
000210 38 cd d9 bd 6b f1 2a bc 7b c5 20 bd ad a2 30 bc
       -0.106348455 -0.010433535 -0.039250832 -0.010780972
000220 30 f9 30 3d ce 76 42 bc ab 04 cf 3b 44 ca 3f 3c
       0.043206394 -0.011869146 0.006317695 0.011705939
000230 46 65 96 bd 75 97 01 be fb 2c 59 3d 87 ed 2b bc
       -0.07343535 -0.12655433 0.053021412 -0.010493643
000240 90 59 1e ba 4e f0 f8 3b e9 e3 94 b9 33 b3 f2 bb
       -0.00060405675 0.007597006 -0.00028398566 -0.007406616
000250 48 d8 26 bd 37 ba 55 bc bb f7 d7 3c 6f cf 2d bd
       -0.040733606 -0.013044885 0.026363244 -0.042434152
000260 75 74 42 bc de 64 ca bc b6 9a 52 bc e8 a1 07 3c
       -0.011868586 -0.0247063 -0.012854269 0.008278348
000270 df e9 8e bc d4 b9 23 bd 29 35 1a bc 3e a4 40 bd
       -0.017445503 -0.03997214 -0.009412088 -0.047031634
000280 10 86 e5 bc d5 e5 2e 3d 64 e5 31 bd b7 90 86 3d
       -0.028018028 0.042699654 -0.043431655 0.06570571
000290 95 f6 fd 3d c2 d1 d9 3c fa c2 ca 3c 1a ca 22 3c
       0.124005474 0.026589278 0.024751175 0.00993588
0002a0 17 77 42 bb 74 23 a6 3c e5 c4 15 bb 5f 0d 51 3d
       -0.0029673034 0.020280577 -0.0022852954 0.051038142
0002b0 d4 e6 1c 3d 1b c7 40 3d f8 f0 36 3c ca 68 83 3c
       0.038306072 0.04706488 0.01116585 0.016041178
0002c0 bf 13 48 bd 57 f3 30 be a5 89 f2 3b b2 2f 39 bd
       -0.048846956 -0.17280327 0.0074016624 -0.0452115
0002d0 5d 69 40 3d 8e 3d d1 bc 04 4b 11 3d 9d 3c d0 bb
       0.046975482 -0.025542047 0.03547193 -0.006354882
0002e0 5a 54 16 3c 79 a5 8a bd d8 2a a2 3c 7c 6b 78 3c
       0.009175384 -0.06769843 0.01979582 0.015162345
0002f0 a8 12 e9 bb 21 31 da bc 02 87 6a ba 44 ba 41 bc
       -0.0071128197 -0.026634755 -0.00089465093 -0.011824194
000300 9e c9 74 3d 05 8f 9b 3b ed 7f 86 3c 8e f8 82 3d
       0.05976259 0.004747274 0.016418422 0.06395064
000310 94 e2 87 bd 53 ab 44 bd 09 cb 9e 3d 7a 78 ce 3d
       -0.06635013 -0.04801495 0.0775357 0.10081573
000320 d2 0a 9d bc 6b 17 92 3c 51 ff bb 3c 04 b2 0a 3d
       -0.019170199 0.017833432 0.022948893 0.033861175
000330 7c 37 72 3d d9 56 d1 bc 2b 49 3e 3d 20 9d d0 bd
       0.059134945 -0.025554108 0.046456497 -0.10186219
000340 45 57 2e 39 8d e9 ea 3b d0 43 e4 bb f1 2d 95 bc
       0.00016626444 0.0071689547 -0.0069660917 -0.018210383
000350 fb 4e 3d 3c 8c d0 8b 3c f1 c5 f0 3c 9c c9 24 bd
       0.011554475 0.017067216 0.02939126 -0.040231332
000360 a5 88 ba 3c 92 3a 32 3d e6 5c db 3d 32 76 3f 3e
       0.022770235 0.04351289 0.10711078 0.18697432
000370 e3 95 0e 3d 53 27 09 3c 80 ab 25 bc 36 4f 01 bd
       0.034810912 0.008371192 -0.01011169 -0.031569682
000380 01 04 2b bd 32 17 81 bd 13 c3 fa bd a0 20 ab bd
       -0.041751865 -0.06303252 -0.12244239 -0.08355832
000390 41 0b 1c 3c 5b 81 a9 3c 71 f3 c8 bd 72 0c e1 bd
       0.0095241675 0.020691564 -0.09812058 -0.10988702
0003a0 fa 19 27 3c 43 f0 96 3c 24 dc ad b8 b5 c6 f4 3c
       0.010199064 0.018425113 -8.290287e-05 0.029879907
0003b0 65 16 57 3c b2 64 77 3c 5a ca 54 3d 86 58 d8 bc
       0.013127898 0.015099691 0.05195079 -0.026409399
0003c0 0a 79 8f bd ee 80 5e bd 4f ca 93 bb 0b 2a 99 bd
       -0.07005508 -0.054322176 -0.004510201 -0.07478722
0003d0 21 34 90 3c 63 08 4e 3c b3 94 a2 bd 41 a6 c6 bd
       0.017602982 0.012575242 -0.079385184 -0.09699679
0003e0 b6 69 2d 3d f3 bc a2 3d 10 25 bd bc 3c 9d db 3b
       0.042337142 0.079461955 -0.023088962 0.0067020934
0003f0 73 29 7a 3c f3 c2 da 3c 3c 95 8d bb be 8d ae 3a
       0.015268671 0.026704287 -0.0043207686 0.0013317389

innerproduct1.bias f4 [128]
000000 e7 14 4f 3e 28 6d 8e 3e 94 f9 8f 3e 61 05 d0 3e
       0.20222817 0.27817655 0.281201 0.40629104
000010 6d c5 9a 3e 33 a5 2f 3e b3 f0 b9 3e 30 b0 4f 3e
       0.3022875 0.17152862 0.3631645 0.20282054
000020 19 be 8e 3e 66 45 3a 3e e3 02 e1 3e d6 b4 39 3e
       0.27879408 0.18190536 0.43947515 0.1813539
000030 2e ed ac 3e 2b 2f 3c 3e fa b8 53 3e ce 1c c2 3e
       0.33774704 0.18377368 0.20676032 0.379126
000040 05 ed 84 3e b9 7e d5 3e 8d 9c 02 3e aa 9f 4a 3e
       0.25962082 0.41698244 0.12755032 0.1978747
000050 b3 e0 bc 3e dc 89 7b 3e c7 56 06 3e ef 86 08 3e
       0.36890182 0.24564308 0.1311904 0.13332723
000060 70 a1 db 3d d1 e0 86 3e 86 9e 3f 3e 7e 2e 49 3e
       0.10724151 0.26343396 0.18712816 0.19646642
000070 e7 3a ca 3d 13 f5 b7 3e 11 d3 79 3e 3c ee c2 3e
       0.09874516 0.35929164 0.24396922 0.38072383
000080 1c 76 00 3f 92 57 3e 3e 7b 96 46 3e 01 39 6b 3e
       0.5018022 0.18588093 0.19393341 0.22970964
000090 cc e4 53 3e 17 8f 9d 3e 52 3b e1 3e fa 8d 19 3e
       0.20692748 0.3077323 0.4399057 0.14995566
0000a0 6d 72 0b 3e df 83 b0 3e 59 aa 3f 3e 5b e8 92 3d
       0.13617869 0.3447561 0.18717326 0.071732245
0000b0 a1 d8 40 3e ca 06 9d 3e 99 96 aa 3e 80 59 b7 3e
       0.18832637 0.30669242 0.33318022 0.3581047
0000c0 17 47 e0 3d 03 1a 9a 3e 3f 69 e1 3e 32 d0 64 3e
       0.10951059 0.3009797 0.4402561 0.22345045
0000d0 f9 8e e2 3e 61 89 97 3e a9 77 fc 3d cb af 96 3e
       0.44249704 0.29597 0.12327511 0.29430994
0000e0 f6 40 9a 3e b2 ee 94 3e a1 5e 82 3e 94 d6 45 3e
       0.30127686 0.2908836 0.2546282 0.19320136
0000f0 af ff c1 3e 43 8e 62 3e 07 58 88 3e bd b8 5d 3e
       0.37890384 0.22124581 0.2662966 0.21652503
000100 27 31 e4 3e d4 63 02 3e f1 d6 64 3e ed c0 51 3e
       0.4456875 0.12733394 0.22347619 0.20483752
000110 95 c5 72 3e ae 2f 29 3e 4f 82 38 3e bb d5 54 3e
       0.23708184 0.16522095 0.18018459 0.20784657
000120 1d b7 9e 3e d8 91 1d 3e 8b 48 31 3e 83 1f df 3e
       0.3099908 0.15387666 0.17312829 0.4357873
000130 94 2a 9a 3e 6a 32 2a 3e 82 5c a5 3e dc 18 85 3e
       0.3011061 0.16620794 0.3229714 0.2599553
000140 85 56 0c 3f f9 00 88 3e 16 d5 a0 3e 62 0a f2 3e
       0.5481952 0.26563242 0.31412572 0.47273546
000150 a8 1b cb 3d 4b 61 ba 3e 37 9f 6c 3e 42 ba af 3e
       0.099173844 0.36402354 0.2310761 0.3432179
000160 2b 81 be 3e 79 d8 85 3e 39 f6 82 3e 7e 0d b6 3e
       0.37207922 0.26141718 0.25578478 0.3555717
000170 56 73 57 3e c6 22 88 3e 59 35 d9 3e 89 2d 81 3e
       0.21040091 0.2658903 0.42423514 0.25230053
000180 7a e9 b9 3e 8c ca 8c 3e 20 78 c9 3e a9 f9 90 3e
       0.3631094 0.2749828 0.3934946 0.28315476
000190 65 d5 51 3e af 82 9b 3e 7a 0e 10 3e e8 b4 b2 3e
       0.2049156 0.3037314 0.14068022 0.34903646
0001a0 57 44 9b 3e 51 39 9d 3e 70 3a a6 3e 81 9d 45 3e
       0.30325577 0.3070779 0.3246646 0.19298364
0001b0 c7 7e 81 3e b6 ec 91 3e f2 2c d9 3e 4f 68 dd 3e
       0.25292036 0.2850091 0.42417103 0.43243644
0001c0 63 a0 b0 3e f8 bb 8e 3e bc 13 b6 3e 02 73 0e 3e
       0.34497365 0.27877784 0.3556193 0.1391106
0001d0 8a dc 58 3e ef e9 fb 3e f5 c9 9f 3e 94 bd ad 3e
       0.21177879 0.49201915 0.31208768 0.339337
0001e0 b7 f5 7e 3e 8b 39 74 3e 48 83 88 3e c0 86 03 3f
       0.2489842 0.23850076 0.2666266 0.5137749
0001f0 6e 26 cb 3e 4f c5 b9 3e 15 05 21 3e 8e aa 8f 3e
       0.39677757 0.36283347 0.15724595 0.2805981

innerproduct1.weight f4 [128, 576]
000000 8f dc 05 3c 67 26 de 3c 4b d6 9d 3a c6 23 d4 3c
       0.008170261 0.027117921 0.0012042014 0.025895964
000010 bc 08 93 3b df 8b 3a bb 49 95 39 3c 00 03 09 3c
       0.004487125 -0.0028464717 0.011327096 0.008362532
000020 7a 7c 81 3b e7 67 33 bc 24 34 42 bc 50 06 47 bc
       0.0039516063 -0.010950065 -0.011853252 -0.012147501
000030 1e 1a 49 3b 75 58 68 bb da 32 64 3a 47 8b ed 3b
       0.0030685733 -0.0035453115 0.0008705087 0.007249269
000040 59 6e 3b 3c 3e b8 fd bb 76 4b cd 3b a7 2e e8 3b
       0.011439883 -0.0077429106 0.006265099 0.0070856395
000050 70 7f 36 3c f8 b3 6b 3a 43 55 0f 3c a6 d3 e9 3b
       0.011138782 0.0008991356 0.008748355 0.007135826
000060 4e 3c 82 bc 1c ba a1 3b bd 8b 5f 3c fb d9 9a bc
       -0.015897896 0.004935516 0.013644156 -0.01890277
000070 cd 58 d0 b9 85 aa b8 bc 83 67 8f 3c dc 0a d9 3c
       -0.00039739013 -0.022542248 0.017505413 0.026494436
000080 75 58 6a 3c 22 93 5a 3c 1b c0 ad 3c 1f a5 74 3c
       0.014303316 0.013340743 0.021209767 0.014931946
000090 08 09 7e 3b 53 30 c4 bb 78 17 b2 bc af a1 06 39
       0.0038762707 -0.005987206 -0.021739706 0.00012839468
0000a0 06 77 50 3a 3e ca d2 bb 36 a9 fb 3b af 5b bc ba
       0.0007952306 -0.0064328006 0.0076800836 -0.0014370586
0000b0 34 40 76 bc 35 73 92 bb 47 c6 c6 3b 4c 84 7a bc
       -0.015029956 -0.0044693 0.006066117 -0.015290331
0000c0 64 48 a0 ba 0a 17 49 3c 45 ef 31 3a 9a af 74 3c
       -0.0012228605 0.012273559 0.0006787668 0.014934445
0000d0 5d fe 89 3c 89 a7 25 3c 05 22 11 3c db a3 33 bc
       0.016844923 0.010110744 0.008858209 -0.010964359
0000e0 7a e2 76 bc 76 53 fc bb 4e 69 b6 bc 6d 98 26 bb
       -0.015068645 -0.007700379 -0.02226701 -0.0025420443
0000f0 e5 65 53 bb 38 54 52 3b 0d 05 bc ba 09 aa 3e 3c
       -0.0032256779 0.0032093655 -0.0014344767 0.011637219
000100 13 5d 9b 3a 30 8d 2b bb 7b a4 c2 bb b5 e0 3a 3c
       0.00118533 -0.0026176684 -0.0059400178 0.011406113
000110 20 2a 6b 3b b0 8a 0f 3d ab 0c 35 3c 88 f6 d5 3c
       0.0035883263 0.035044372 0.011050384 0.026118532
000120 1e e9 ec 3b e4 57 73 3b 04 b1 29 3d e2 78 69 bc
       0.007229938 0.0037131244 0.04142858 -0.014250012
000130 8b 8b 8f bc 40 87 7e 3c 8a da 98 3c 55 8a 0f 3c
       -0.017522594 0.015535176 0.018658895 0.008761008
000140 3b 00 5d bb a5 a7 2d bc 00 69 36 3c 1d 8a b8 3c
       -0.0033722061 -0.010599052 0.011133432 0.022526795
000150 fc 06 96 ba af be 2c 3c 32 10 76 3c a7 b8 55 3c
       -0.0011446173 0.010543509 0.01501851 0.013044513
000160 c9 10 ad 3c 91 4e 7f 3b 53 f7 fa bc 8d 9b 73 3b
       0.021126168 0.0038956741 -0.030635512 0.0037171573
000170 5c 0b c8 3b 3a 59 6c bc 6b fe 50 bc 31 13 90 3b
       0.00610487 -0.01442557 -0.0127559705 0.004396819
000180 28 52 ef bc ab d0 a2 bc 64 9b 87 bc f3 12 a6 3c
       -0.02921398 -0.019874891 -0.016553588 0.020272708
000190 7b 6f e9 3b ac f9 42 b9 63 3a a3 3b 84 21 14 3a
       0.007123885 -0.00018594292 0.0049813255 0.0005650746
0001a0 85 4c 3f 3c 6b a6 78 ba b1 88 ce bb 2b 3a 77 3c
       0.0116759585 -0.00094852474 -0.006302916 0.015089552
0001b0 90 bb d1 bc fa 2e e9 ba 7c a7 15 bb d8 d2 54 3c
       -0.025602132 -0.0017790489 -0.0022835424 0.012989722
0001c0 33 86 b3 ba 37 2e 07 3c 38 53 85 3c b3 9e a1 3c
       -0.0013696611 0.008250765 0.016275033 0.019728994
0001d0 1f 7d ca bb 69 7e 46 bc 7c 61 32 3c 82 ff 53 bc
       -0.0061794664 -0.0121150995 0.0108875 -0.012939336
0001e0 ce 87 62 3b a5 29 e4 bb 6c a4 94 bc 77 52 a2 bc
       0.003456581 -0.006962972 -0.018144809 -0.019814713
0001f0 db a7 9c bc d1 38 15 bd a1 6f 2f bc 2e bc a7 bc
       -0.019123008 -0.036431137 -0.010707767 -0.020475473
000200 4e d1 56 bc a0 71 91 3b fd 8e 1f bc b3 13 5b 3b
       -0.013111426 0.004438594 -0.009738681 0.003342849
000210 6a b5 eb 3b cb 99 3d bc 35 ae 3a 39 19 a4 6d 3c
       0.007193257 -0.011572312 0.0001780324 0.014504456
000220 dd ee 6b bb 62 5d f1 bc 06 62 9b 3c 5a b3 83 bc
       -0.0036000528 -0.029463474 0.01896764 -0.016076732
000230 a3 ec 13 bc c8 e2 ab 3b ca 69 15 bc cb 47 ce ba
       -0.009028587 0.0052455403 -0.00911946 -0.0015737949
000240 ed 31 5c bb c0 2a b2 bb 28 8c c7 bb aa 8f 0e bb
       -0.0033599094 -0.005437225 -0.006089706 -0.002175311
000250 a8 c0 de ba 5d eb 74 bc d0 4b 2a 3c 2c b4 88 3b
       -0.0016994672 -0.014948693 0.010394052 0.004171869
000260 45 21 fb bb 92 4b 11 3c 40 3b b3 bb 43 33 e6 3c
       -0.007663878 0.008868115 -0.0054697096 0.028100615
000270 b5 ce b2 bc 5f 36 e8 bb 2b 7a 52 bc 4c 52 b3 3b
       -0.021827081 -0.0070865597 -0.01284651 0.005472457
000280 2f 82 10 3c 79 82 14 3c 98 11 19 3c 62 6b 4e 3b
       0.008820101 0.00906431 0.009342574 0.003149711
000290 50 f4 c4 bb 7a 1c 5f 3c d6 f7 79 bb d6 82 3a bc
       -0.0060105696 0.013617629 -0.0038142106 -0.011383733
0002a0 65 8a ff 3c 1e c0 ff 3b bd 2b 2f 3a 33 8a 68 3c
       0.031193921 0.0078048846 0.0006682238 0.0141931055
0002b0 13 c0 8b 3b 27 78 20 bb 86 9e 82 bc 7a 1f b1 3b
       0.0042648404 -0.002448568 -0.01594473 0.0054053636
0002c0 48 8a a3 b9 54 12 fa bc 49 a8 14 bb 6e 1a 2e 3c
       -0.0003119281 -0.030526318 -0.0022683314 0.0106264185
0002d0 e4 68 64 bb 0c fe 83 3c 6b 14 49 bc 50 b9 d2 bb
       -0.0034852559 0.01611235 -0.012272934 -0.0064307824
0002e0 52 6c 85 3b 90 b4 06 3c 18 2f 4d 3b 84 7c 0f ba
       0.0040717507 0.00822176 0.0031308588 -0.00054735714
0002f0 16 0c a7 3b cb 4c db 3c 7d c0 3b 3c 26 5d 06 3b
       0.0050978763 0.026770016 0.011459467 0.0020502298
000300 95 57 d3 bb 60 64 2a 3b ac 9b 1e bb c3 04 94 bc
       -0.0064496496 0.002599977 -0.0024201674 -0.018068677
000310 36 37 bf ba 2a a0 b8 bb c2 3b 9e 3c 51 65 19 3c
       -0.0014588598 -0.0056343274 0.019315604 0.009362535
000320 73 78 5b 3c bc 8a f7 bb fa ac 6f 3b a1 46 13 bc
       0.013395417 -0.00755438 0.0036571608 -0.008989007
000330 d8 17 92 3c 69 ed 59 3c df 52 01 3c ef 96 ea 3b
       0.017833635 0.013301232 0.007893293 0.007159106
000340 27 02 e6 3a 19 40 3a bc d3 11 8a bc ee 4a 75 bb
       0.0017548249 -0.011367821 -0.016854202 -0.0037428695
000350 bc 0b a2 bc 70 74 c7 bc 84 ee 8c bc 99 7f 25 bc
       -0.019780986 -0.024347514 -0.017203577 -0.010101222
000360 b1 6b 47 3c 8b f8 73 bc 9a b1 fc bb 80 7a 1d 3a
       0.012171672 -0.0148908 -0.0077116014 0.00060073286
000370 b7 61 90 3b c4 64 b7 bb 7b 5d cd 3b 2c 39 3c bc
       0.0044061798 -0.005596729 0.0062672473 -0.01148824
000380 af 17 ae bb f6 c9 0f 3b fa c8 99 bc ae e3 e0 bc
       -0.005312882 0.0021940446 -0.01877259 -0.027452316
000390 43 58 94 bc 17 de ef bc a7 a2 31 bd 81 fe 6d bc
       -0.018108493 -0.029280705 -0.043368008 -0.0145260105
0003a0 de c0 4d bc a3 75 3e bd 18 60 cb 3c 66 12 17 bb
       -0.01255819 -0.046498906 0.024826095 -0.0023051738
0003b0 3a 02 4f bb f2 99 ca ba e3 ce 1c 3c 5c a6 5a 3c
       -0.003158702 -0.0015457256 0.00957081 0.013345327
0003c0 39 d1 7c 3a 95 26 8a 3a 60 d6 ed 3b 4d ca cc 3b
       0.0009644214 0.0010540063 0.0072582215 0.006249702
0003d0 d4 91 42 3c b4 b0 f1 ba 7b df 48 bc 33 63 a7 b9
       0.011875588 -0.0018439502 -0.012260313 -0.0003192663
0003e0 7d 2a 8d 3a c7 44 af bb 28 cd 46 3b a9 30 66 3b
       0.0010770109 -0.005348775 0.0030334685 0.0035124219
0003f0 55 6e e2 3b af 71 49 bb 31 0f 62 3c cc 26 73 bc
       0.0069101253 -0.0030737927 0.013797567 -0.014840793

innerproduct2.bias f4 [2]
000000 c8 88 39 3e 87 1f 9a 3c
       0.18118584 0.018813862

innerproduct2.weight f4 [2, 128]
000000 9e 29 2e 3e 98 1e 05 be 47 5d c1 3c 70 11 e9 3c
       0.17008063 -0.12999952 0.023604048 0.028450698
000010 67 12 b1 3c e5 cd 0d 3e 7f e8 62 3e d8 37 b6 3d
       0.02161522 0.13848074 0.22159003 0.0889737
000020 06 09 55 be 6a 28 c3 3c 6b a9 16 3e b7 3d 0c be
       -0.20804223 0.023822982 0.14713065 -0.13695417
000030 d3 08 4e 3e 0e 4e 56 bc ea 64 c9 bd 44 f2 51 3e
       0.20120554 -0.013080133 -0.09833701 0.20502573
000040 45 50 06 bd 3d e7 ec 3d cb 67 8e bc 23 1b 0b bd
       -0.032791395 0.11567543 -0.017383477 -0.033961426
000050 1c 43 6d bd 24 42 f3 bd ae 63 b9 3b d9 49 3f 3d
       -0.05792533 -0.1187785 0.0056576347 0.046701286
000060 8d 80 95 b9 23 83 58 be e6 ec fb 3d 25 5e a9 3d
       -0.00028515272 -0.21143775 0.12301044 0.0826991
000070 8c 9b 62 be ea 49 89 be 7b 03 97 be 17 d1 87 be
       -0.22129649 -0.26814204 -0.29494843 -0.2652671
000080 b5 ed 6c 3e 96 6d 8b be 89 e1 10 3e 42 70 0f 3e
       0.23137553 -0.27232045 0.14148535 0.14007667
000090 d4 8d 83 bd e4 dd 22 3d ab b4 f4 3d 57 f4 87 3d
       -0.06423536 0.039762393 0.11948522 0.06638401
0000a0 8d 8e ab bd 6f 59 31 be 5b 83 df 3c e7 72 0c 3b
       -0.08376799 -0.17319272 0.027284315 0.0021430792
0000b0 57 a9 25 be 62 c1 95 be 34 37 5e be bf 03 7c be
       -0.1617788 -0.29249102 -0.21700746 -0.24610804
0000c0 50 1f e0 ba 85 0f 69 be 31 47 8f 3e ab 87 d2 bc
       -0.0017099176 -0.22759826 0.27984002 -0.025699457
0000d0 41 53 a0 be eb 4b 5f 3c f5 e0 52 be 9d 5e 93 3d
       -0.31313518 0.01362894 -0.20593627 0.071957804
0000e0 94 ee 63 3e b2 36 55 be 22 9b 3b 3e 8b 83 58 be
       0.22258979 -0.20821646 0.18320897 -0.2114393
0000f0 e5 61 7b be cb 51 12 bd fc ef 68 3d 67 84 5a bc
       -0.24549063 -0.035722535 0.056869492 -0.013337231
000100 e1 d2 84 3e c3 f7 19 be db af 5e bc bc 0e af bc
       0.25942138 -0.1503592 -0.013591732 -0.02136933
000110 56 c2 2d 3e 00 19 f7 bb 86 a7 28 bd 66 6d 4f be
       0.16968665 -0.007540822 -0.041175388 -0.20256576
000120 3e 1a 63 be 0d 9a 8e bd c8 e0 36 be c3 b5 37 3e
       -0.2217798 -0.069629766 -0.17859185 0.1794043
000130 f1 3f 8b be 19 26 6d be b1 f1 63 be 0b 1a 27 3e
       -0.2719722 -0.23159064 -0.22260167 0.16318528
000140 09 eb 7c 3e 75 f9 79 be 52 1f 1f 3e e3 b8 80 3e
       0.24699034 -0.24411567 0.15539292 0.25141057
000150 42 16 07 be d0 c8 c0 bc b6 82 13 3e 21 48 8c be
       -0.13192084 -0.023533255 0.14405331 -0.2739878
000160 4b fe c1 3d 65 31 22 3e 7b f9 0a 3c 8f 34 3a 3e
       0.09472331 0.15839155 0.008482332 0.18184112
000170 84 3b df bd ed 96 aa 3d a2 54 3e 3e f6 bf 1b 3e
       -0.109000236 0.08329568 0.18586972 0.15209946
000180 98 6c 3a 3e a3 fa 34 3e 9b fe 2a 3e 3f e6 96 bd
       0.18205488 0.17673735 0.16698687 -0.07368135
000190 60 b2 0d 3e d9 bc 8e be d1 eb 88 bd 81 68 47 3e
       0.13837576 -0.27878454 -0.066856034 0.19473459
0001a0 9b d1 81 3d 70 e8 c8 bc e7 6c 3d 3d cf 4d ca 3c
       0.06338807 -0.024524897 0.046246435 0.024695305
0001b0 89 34 2c 3e 0c 6f 01 be 59 ee 93 be 2d cb 75 3e
       0.16816916 -0.12640017 -0.28892782 0.24003287
0001c0 41 50 87 bd a5 7a 33 3e 7f c8 6a bd b9 ce 5d bd
       -0.06607104 0.17527254 -0.057320114 -0.054152224
0001d0 d5 25 b1 3d 7a 63 8b be 66 bb 62 be 96 75 51 be
       0.08649794 -0.27224332 -0.221418 -0.20455012
0001e0 d6 fc 00 3e 63 fa 5f 3d a6 32 81 be 83 94 71 3e
       0.1259645 0.054682147 -0.25233954 0.23591809
0001f0 ee 17 21 3e 93 77 12 bd cb 46 32 3d cf e2 0e 3e
       0.15731785 -0.035758566 0.043524545 0.13953708
000200 cc 73 2c be 6f d3 14 3e 70 aa 98 bc 4e e6 c4 bc
       -0.16841048 0.1453378 -0.018635958 -0.0240356
000210 7e d8 96 bc d0 cc 0d be a5 1c 71 be 0b c0 b7 bd
       -0.018413778 -0.13847661 -0.23546083 -0.08972176
000220 a5 ee 61 3e 36 15 7d bc 40 ec 17 be 52 1a 09 3e
       0.22063692 -0.015446952 -0.14836216 0.13388947
000230 b4 38 44 be 46 20 bf 3c e8 ee aa 3d bb a2 4a be
       -0.19162256 0.023330819 0.08346349 -0.19788639
000240 d9 9a a1 3c 36 2c 01 be f3 50 92 3c b8 56 a5 3c
       0.019727157 -0.12614521 0.017860865 0.020182952
000250 4e 58 85 3d 65 05 0e 3e 29 7c f8 3b 19 40 41 bd
       0.065109834 0.13869245 0.0075831604 -0.04718027
000260 39 34 84 bc 19 08 53 3e d0 4e e4 bd df c1 ad bd
       -0.016138183 0.20608558 -0.11147845 -0.084842436
000270 13 2b 6d 3e 40 f6 79 3e 2d 2e 8c 3e c6 cc 8b 3e
       0.23160963 0.24410343 0.2737898 0.27304667
000280 9d f6 81 be ea c6 8c 3e e7 14 f7 bd bd d5 16 be
       -0.25383464 0.2749551 -0.12064534 -0.14729972
000290 3d bc 81 3d 87 a5 6b bd c7 68 c1 bd 07 ab 7c bd
       0.06334732 -0.057530906 -0.09443813 -0.061686542
0002a0 59 5a 85 3d 2d 4b 24 3e f3 63 a2 bc 0a 0e 8b bb
       0.06511373 0.16044302 -0.01982305 -0.004243617
0002b0 76 3a 28 3e ac d6 9c 3e 92 b5 64 3e 32 e7 7f 3e
       0.16428551 0.30632532 0.22334889 0.24990538
0002c0 3c 7a a9 3b 47 44 61 3e 5d 4d 8e be e7 42 4a 3c
       0.005172042 0.21998702 -0.27793398 0.012345052
0002d0 75 2d 9b 3e 16 40 2d bb d5 23 53 3e 87 51 9a bd
       0.30308118 -0.0026435903 0.20619138 -0.07535081
0002e0 7f 2b 50 be 3a 73 5d 3e 00 27 39 be 54 49 48 3e
       -0.20329092 0.21625987 -0.18081284 0.19559222
0002f0 5a b7 84 3e 96 42 01 3d 21 4b 6f bd 97 a0 0f 3b
       0.25921136 0.031557642 -0.058421258 0.0021915787
000300 66 bf 76 be 24 7b 0b 3e ef a4 ca 3c 0a 2c 8b 3c
       -0.2409645 0.13621193 0.02473685 0.016988773
000310 9e e8 17 be 1e 3c 88 3c 68 fd 0b 3d 98 54 4e 3e
       -0.1483483 0.016630229 0.034177214 0.20149457
000320 cf f3 6f 3e 73 59 86 3d 3b 9a 26 3e c1 a4 27 be
       0.2343285 0.0656003 0.16269772 -0.16371442
000330 db 7e 87 3e 73 07 79 3e 1f 97 69 3e 6a 93 2a be
       0.2646397 0.24319248 0.22811554 -0.16657797
000340 96 6e 7e be 9e 18 7b 3e ec 12 26 be fa 85 84 be
       -0.24846873 0.2452111 -0.16218156 -0.25883466
000350 63 7c 03 3e 61 39 d8 3c 3e 13 0d be eb 07 8d 3e
       0.12840419 0.026394548 -0.13776872 0.27545103
000360 01 29 a8 bd 8d 4c 1d be 41 a5 f0 bc 13 3f 47 be
       -0.08210946 -0.15361233 -0.029375674 -0.19457655
000370 ea 64 fa 3d a6 7c a7 bd 01 3a 49 be 77 42 1e be
       0.12226279 -0.08178072 -0.19651033 -0.15455042
000380 67 5a 3d be d3 6b 31 be 04 7d 2e be 2e 6e 8c 3d
       -0.18491517 -0.17326288 -0.17039877 0.068569526
000390 49 c8 0f be 0e a8 8b 3e 5f ed 81 3d 8b 3e 3f be
       -0.14041246 0.27276653 0.06344103 -0.18676202
0003a0 50 5d 83 bd 08 8a 6c 3c 3a b0 73 bd b5 8d f0 bc
       -0.06414282 0.014437206 -0.059494235 -0.029364446
0003b0 99 57 36 be e1 e1 f8 3d 60 b0 93 3e 6a 39 73 be
       -0.17806853 0.12152458 0.288455 -0.2375237
0003c0 e9 a3 8f 3d 94 1b 20 be 3c 71 86 3d 7d ee 8d 3d
       0.07013685 -0.1563552 0.065645665 0.06930254
0003d0 0f c3 b8 bd 2c 16 8a 3e d0 a7 50 3e 06 c6 5a 3e
       -0.090215795 0.2697004 0.20376515 0.21364602
0003e0 e8 b5 08 be 6f e0 3f bd 04 7c 75 3e af 2f 66 be
       -0.13350642 -0.046844896 0.2397309 -0.22479127
0003f0 47 ad 2b be d3 b4 d4 3c 52 52 08 bd b3 62 07 be
       -0.16765319 0.02596513 -0.03328163 -0.13221245

innerproduct3.bias f4 [3]
000000 85 c0 7f 3f d2 93 1a 3b b3 72 5a bb
       0.99903136 0.0023586643 -0.0033332526

innerproduct3.weight f4 [3, 128]
000000 95 51 83 3a dd a7 80 3c 9e 08 6e 3d 8d 1f ac 3c
       0.001001882 0.015705043 0.058113687 0.021011138
000010 f1 f3 9d 3d 5d 76 ea ba 77 12 56 bb bb e7 3f 3b
       0.07712544 -0.0017888058 -0.0032664814 0.002928241
000020 5d e8 9d 3a b9 91 19 3d b5 9d 10 bd 51 fa 10 3c
       0.0012047399 0.037492488 -0.03530665 0.008848743
000030 ca e0 df ba 1d bd d9 3c 44 31 90 3c 39 4d db bb
       -0.0017080542 0.026579434 0.017601617 -0.0066925553
000040 cf 6d ec 3c b9 66 70 3d 5c d7 bd 3c 20 18 2c 3d
       0.028860955 0.058691714 0.02317398 0.042015195
000050 51 48 38 bd 16 31 48 3c f1 e9 2a 3d 0e 04 a6 3c
       -0.04499084 0.012218734 0.04172701 0.020265605
000060 9e f3 5a 3c f2 a2 5c bb f3 86 f6 bb 4a d4 32 3c
       0.013363747 -0.003366646 -0.0075234114 0.0109148715
000070 7f 84 67 bb 9c ef 70 b8 62 a2 ec ba f9 c2 7c bb
       -0.0035326777 -5.7443613e-05 -0.0018053765 -0.0038568361
000080 0e 05 05 bc ea 33 46 3a ba f0 98 ba 4c 08 e9 39
       -0.008118881 0.00075608364 -0.0011668422 0.00044447405
000090 dd 6c fc 3c ee 88 42 bd 7b b5 3f 3d 7c 65 df 3c
       0.030813629 -0.047493868 0.046803933 0.027270071
0000a0 2b f5 99 3b 23 39 40 bc 8a af 0c 3d 75 f1 4e 3b
       0.0046984158 -0.011732372 0.034347095 0.0031577025
0000b0 ac 4e b0 bb b6 be 17 bb dd ab f0 3a e0 90 15 bb
       -0.005380472 -0.0023154444 0.0018361766 -0.0022821948
0000c0 7c 4a b1 3c 99 9e 42 bb 61 53 41 bb 5e 89 37 3d
       0.021641962 -0.0029696582 -0.002949916 0.044808738
0000d0 b1 37 c6 ba 69 fd 62 bd bc 54 6a b9 4a 7f 12 3d
       -0.0015122799 -0.055417452 -0.00022347545 0.035765924
0000e0 19 42 e7 ba 59 5c 9d bb e2 25 8c bb cb 7c a1 ba
       -0.00176436 -0.0048022685 -0.004276977 -0.0012320516
0000f0 29 41 ab 3a f8 17 17 bc bd 1e 48 3d 11 18 3a 3d
       0.0013065684 -0.009222023 0.04885744 0.045433108
000100 c7 7b 7b bb d4 46 8a bb db 0d 40 3d d9 98 5a 3d
       -0.0038373338 -0.004219869 0.046888214 0.053368423
000110 36 e1 4c bb 97 40 97 3c 16 da 04 3d b9 3b 8f ba
       -0.0031262166 0.018463416 0.032434545 -0.0010927833
000120 64 30 af 3a 0e aa 94 3c ed e3 57 bb 1c 95 a2 3a
       0.0013365862 0.018147495 -0.003294225 0.0012404057
000130 f0 43 c8 bb 88 7b 07 bb cf c3 9f b9 9c e0 50 bb
       -0.0061116144 -0.0020672996 -0.00030472732 -0.003187216
000140 40 e4 29 bc 01 10 28 bb d2 f6 18 3d fb 00 8f bb
       -0.01036936 -0.0025644305 0.03734476 -0.0043641306
000150 27 a6 e4 3a 70 b6 2d 3d fe 25 05 3c 0c 77 66 bb
       0.0017444537 0.042410314 0.008126734 -0.0035166172
000160 75 bc 73 3d 60 09 e1 b9 4d 54 ef 3a 50 8c ad 3b
       0.0595059 -0.0004292233 0.0018259377 0.0052962676
000170 ff 66 ca ba ee 36 73 3c db 94 9b bc c3 44 db bb
       -0.0015442072 0.014844639 -0.018991878 -0.0066915466
000180 fc 7a 8b 3b 83 4d 54 3b fa 5c ec 3c dd b9 16 bd
       0.0042566042 0.0032394833 0.028852928 -0.036798347
000190 46 e0 ad 3b 6f 3a 10 3a de e7 f0 3c ba 95 11 bb
       0.0053062765 0.00055018713 0.029407438 -0.0022214488
0001a0 e4 30 24 bd db 78 f9 bc 46 09 f8 bc 7b 1e 59 3d
       -0.04008569 -0.030453136 -0.03027786 0.053007584
0001b0 1f 1c 35 bb 84 eb 7c 3b fb f5 89 3a f6 61 93 bb
       -0.002763517 0.0038592527 0.0010525578 -0.004497762
0001c0 cc 8b b9 3c 32 f4 77 ba a8 7e 8a bc 98 08 f5 3c
       0.022649668 -0.000945869 -0.016906098 0.029911324
0001d0 96 b7 72 3c 65 95 65 ba a5 d5 2d bb 5c ee 9e b6
       0.014814278 -0.0008757918 -0.0026525047 -4.7365156e-06
0001e0 26 7b 72 3c 7d 14 25 3d ca c6 86 bb d7 2c 63 bc
       0.014799869 0.040302742 -0.004113053 -0.013865671
0001f0 89 71 6a 3c 1c c8 52 bd 56 b6 8a 3c bb 62 00 3c
       0.014309295 -0.05146037 0.016932648 0.007836039
000200 67 c9 3f 3a fc 92 3f 3b 0c f0 df bc 95 60 18 3c
       0.0007316083 0.0029231897 -0.027336143 0.009300371
000210 bc a8 c7 3b a1 17 b7 39 cc ff 03 3b df 5c 72 3a
       0.0060931128 0.00034922085 0.002014148 0.0009245406
000220 f2 61 20 ba 59 91 02 bd 62 a2 d5 bc ab 80 a7 ba
       -0.00061181106 -0.031876896 -0.026078407 -0.0012779435
000230 12 78 9a 3a 30 d7 4d bd 73 a9 c2 bb b9 ca 41 bb
       0.0011785051 -0.050254047 -0.00594061 -0.0029570295
000240 f6 6f 49 bc 6a ec 53 3d cf 2e e4 3b b0 c2 38 3c
       -0.01229476 0.051739134 0.006963588 0.011276886
000250 bd db 61 3d 11 79 2e bc 2f e9 bf 3c 45 d4 d7 3c
       0.0551412 -0.010648982 0.02342662 0.026346335
000260 e0 1f 55 bc 94 e6 31 bb 98 a3 ff b8 c0 c2 3f 3b
       -0.013008088 -0.0027145492 -0.00012189819 0.0029260367
000270 55 91 3d 3a a5 4c 09 bb 60 fa 03 b9 1d c3 f0 39
       0.0007231434 -0.0020950225 -0.00012586406 0.00045921738
000280 f8 05 60 3b bf 64 0e 3b 11 0a b3 39 10 3a ef 3a
       0.0034183245 0.002172753 0.0003414904 0.0018251557
000290 63 59 dd ba d1 3a b9 bc 30 59 87 bc 24 e2 72 3b
       -0.0016887601 -0.022611054 -0.01652202 0.003706106
0002a0 c0 27 c6 ba 9e 2e 6b bb 3a b7 a7 ba 0e c4 80 ba
       -0.0015118048 -0.003588594 -0.0012795695 -0.0009824054
0002b0 21 e3 ae ba 89 60 7f ba 40 28 ff ba 73 a1 2a 3a
       -0.0013342836 -0.0009741863 -0.0019466951 0.0006509043
0002c0 e8 fd b7 bb 1c 1c 7e ba e4 84 d3 3a 25 4c 3c bc
       -0.005614985 -0.00096935197 0.0016137627 -0.011492764
0002d0 40 62 26 3b 3e 50 86 3d 28 55 3c 3a be c2 83 bc
       0.0025388151 0.06558274 0.000718432 -0.016084071
0002e0 f8 c9 bf 3a 37 46 e0 3a 4d da b5 ba 80 8b 26 bb
       0.0014632335 0.0017110769 -0.0013874263 -0.0025412738
0002f0 df 14 b5 3a 03 8b 09 3d 69 62 4f bd a9 e0 b0 3c
       0.0013815424 0.033579838 -0.05063096 0.021591501
000300 79 24 d1 3a b1 16 7f 3b 8b 66 42 3c 7f d1 55 3c
       0.0015956304 0.0038923437 0.011865268 0.013050436
000310 0a a9 a8 3a 44 c0 41 3d e1 c5 96 bc 46 00 e5 ba
       0.001286776 0.0473025 -0.018404903 -0.0017471395
000320 f8 30 ce 3a 15 43 3e bb 27 9e 5c b8 91 b7 d8 3c
       0.0015731147 -0.0029031683 -5.259938e-05 0.026454719
000330 6c cb 2e ba e8 2a 03 b9 c9 7b a5 3a dc 97 11 bb
       -0.00066678855 -0.00012509117 0.0012625392 -0.002221576
000340 6d 98 28 3c a5 58 a7 38 fb 1d 8b bc 95 6b af bb
       0.010290247 7.979692e-05 -0.01698207 -0.005353401
000350 f7 c7 9e 3a 92 bb 7f 3d 44 5a bf b9 66 7f 94 b6
       0.0012114038 0.06243474 -0.00036497612 -4.425575e-06
000360 fc e6 36 bd 5e ae 12 bb 0a 5b 24 bd 71 72 40 ba
       -0.044653878 -0.0022381763 -0.040125884 -0.0007341272
000370 ff 1c 3e bc 38 40 92 bc 01 7e 28 bc 66 4c 13 bc
       -0.011603593 -0.017852888 -0.010283948 -0.008990383
000380 ea b0 7e bb cd 18 99 3b d4 5b 94 3c f1 92 90 bb
       -0.0038862773 0.004672146 0.018110193 -0.004412048
000390 31 f1 f4 3a 83 05 e3 b9 3b b6 03 bc ee f4 08 3a
       0.0018687603 -0.0004330092 -0.008039053 0.00052244856
0003a0 a8 88 30 3c 8a cb 2c bd da a6 69 bd 75 63 07 3c
       0.010774769 -0.042186297 -0.057043888 0.0082634585
0003b0 65 6f 59 39 a9 49 25 3c 6f 49 a0 3a 46 75 99 b9
       0.0002073623 0.010088363 0.0012228916 -0.0002926981
0003c0 af 3f 69 bd 50 0a ab 39 c7 98 7c 3b 66 d6 17 bb
       -0.0569455 0.00032623345 0.003854321 -0.0023168563
0003d0 3e c1 86 3a ad 82 20 3a d4 53 75 3a 44 ba ac 39
       0.0010280979 0.0006122988 0.00093584997 0.00032945175
0003e0 ac 70 95 3a e9 0c 5d 3c 95 20 1a bb fc c7 15 bc
       0.0011401377 0.013491848 -0.0023517956 -0.009141918
0003f0 6c 42 ca 3c ee 64 7a 3c 41 7f ff 3b 9d 30 b5 3b
       0.024689876 0.015282853 0.0077971523 0.005529477
